Model: "model_1"
__________________________________________________________________________________________________
 Layer (type)                Output Shape                 Param #   Connected to                  
==================================================================================================
 input_1 (InputLayer)        [(None, 128, 128, 3)]        0         []                            
                                                                                                  
 Conv1 (Conv2D)              (None, 64, 64, 32)           864       ['input_1[0][0]']             
                                                                                                  
 bn_Conv1 (BatchNormalizati  (None, 64, 64, 32)           128       ['Conv1[0][0]']               
 on)                                                                                              
                                                                                                  
 Conv1_relu (ReLU)           (None, 64, 64, 32)           0         ['bn_Conv1[0][0]']            
                                                                                                  
 expanded_conv_depthwise (D  (None, 64, 64, 32)           288       ['Conv1_relu[0][0]']          
 epthwiseConv2D)                                                                                  
                                                                                                  
 expanded_conv_depthwise_BN  (None, 64, 64, 32)           128       ['expanded_conv_depthwise[0][0
  (BatchNormalization)                                              ]']                           
                                                                                                  
 expanded_conv_depthwise_re  (None, 64, 64, 32)           0         ['expanded_conv_depthwise_BN[0
 lu (ReLU)                                                          ][0]']                        
                                                                                                  
 expanded_conv_project (Con  (None, 64, 64, 16)           512       ['expanded_conv_depthwise_relu
 v2D)                                                               [0][0]']                      
                                                                                                  
 expanded_conv_project_BN (  (None, 64, 64, 16)           64        ['expanded_conv_project[0][0]'
 BatchNormalization)                                                ]                             
                                                                                                  
 block_1_expand (Conv2D)     (None, 64, 64, 96)           1536      ['expanded_conv_project_BN[0][
                                                                    0]']                          
                                                                                                  
 block_1_expand_BN (BatchNo  (None, 64, 64, 96)           384       ['block_1_expand[0][0]']      
 rmalization)                                                                                     
                                                                                                  
 block_1_expand_relu (ReLU)  (None, 64, 64, 96)           0         ['block_1_expand_BN[0][0]']   
                                                                                                  
 block_1_pad (ZeroPadding2D  (None, 65, 65, 96)           0         ['block_1_expand_relu[0][0]'] 
 )                                                                                                
                                                                                                  
 block_1_depthwise (Depthwi  (None, 32, 32, 96)           864       ['block_1_pad[0][0]']         
 seConv2D)                                                                                        
                                                                                                  
 block_1_depthwise_BN (Batc  (None, 32, 32, 96)           384       ['block_1_depthwise[0][0]']   
 hNormalization)                                                                                  
                                                                                                  
 block_1_depthwise_relu (Re  (None, 32, 32, 96)           0         ['block_1_depthwise_BN[0][0]']
 LU)                                                                                              
                                                                                                  
 block_1_project (Conv2D)    (None, 32, 32, 24)           2304      ['block_1_depthwise_relu[0][0]
                                                                    ']                            
                                                                                                  
 block_1_project_BN (BatchN  (None, 32, 32, 24)           96        ['block_1_project[0][0]']     
 ormalization)                                                                                    
                                                                                                  
 block_2_expand (Conv2D)     (None, 32, 32, 144)          3456      ['block_1_project_BN[0][0]']  
                                                                                                  
 block_2_expand_BN (BatchNo  (None, 32, 32, 144)          576       ['block_2_expand[0][0]']      
 rmalization)                                                                                     
                                                                                                  
 block_2_expand_relu (ReLU)  (None, 32, 32, 144)          0         ['block_2_expand_BN[0][0]']   
                                                                                                  
 block_2_depthwise (Depthwi  (None, 32, 32, 144)          1296      ['block_2_expand_relu[0][0]'] 
 seConv2D)                                                                                        
                                                                                                  
 block_2_depthwise_BN (Batc  (None, 32, 32, 144)          576       ['block_2_depthwise[0][0]']   
 hNormalization)                                                                                  
                                                                                                  
 block_2_depthwise_relu (Re  (None, 32, 32, 144)          0         ['block_2_depthwise_BN[0][0]']
 LU)                                                                                              
                                                                                                  
 block_2_project (Conv2D)    (None, 32, 32, 24)           3456      ['block_2_depthwise_relu[0][0]
                                                                    ']                            
                                                                                                  
 block_2_project_BN (BatchN  (None, 32, 32, 24)           96        ['block_2_project[0][0]']     
 ormalization)                                                                                    
                                                                                                  
 block_2_add (Add)           (None, 32, 32, 24)           0         ['block_1_project_BN[0][0]',  
                                                                     'block_2_project_BN[0][0]']  
                                                                                                  
 block_3_expand (Conv2D)     (None, 32, 32, 144)          3456      ['block_2_add[0][0]']         
                                                                                                  
 block_3_expand_BN (BatchNo  (None, 32, 32, 144)          576       ['block_3_expand[0][0]']      
 rmalization)                                                                                     
                                                                                                  
 block_3_expand_relu (ReLU)  (None, 32, 32, 144)          0         ['block_3_expand_BN[0][0]']   
                                                                                                  
 block_3_pad (ZeroPadding2D  (None, 33, 33, 144)          0         ['block_3_expand_relu[0][0]'] 
 )                                                                                                
                                                                                                  
 block_3_depthwise (Depthwi  (None, 16, 16, 144)          1296      ['block_3_pad[0][0]']         
 seConv2D)                                                                                        
                                                                                                  
 block_3_depthwise_BN (Batc  (None, 16, 16, 144)          576       ['block_3_depthwise[0][0]']   
 hNormalization)                                                                                  
                                                                                                  
 block_3_depthwise_relu (Re  (None, 16, 16, 144)          0         ['block_3_depthwise_BN[0][0]']
 LU)                                                                                              
                                                                                                  
 block_3_project (Conv2D)    (None, 16, 16, 32)           4608      ['block_3_depthwise_relu[0][0]
                                                                    ']                            
                                                                                                  
 block_3_project_BN (BatchN  (None, 16, 16, 32)           128       ['block_3_project[0][0]']     
 ormalization)                                                                                    
                                                                                                  
 block_4_expand (Conv2D)     (None, 16, 16, 192)          6144      ['block_3_project_BN[0][0]']  
                                                                                                  
 block_4_expand_BN (BatchNo  (None, 16, 16, 192)          768       ['block_4_expand[0][0]']      
 rmalization)                                                                                     
                                                                                                  
 block_4_expand_relu (ReLU)  (None, 16, 16, 192)          0         ['block_4_expand_BN[0][0]']   
                                                                                                  
 block_4_depthwise (Depthwi  (None, 16, 16, 192)          1728      ['block_4_expand_relu[0][0]'] 
 seConv2D)                                                                                        
                                                                                                  
 block_4_depthwise_BN (Batc  (None, 16, 16, 192)          768       ['block_4_depthwise[0][0]']   
 hNormalization)                                                                                  
                                                                                                  
 block_4_depthwise_relu (Re  (None, 16, 16, 192)          0         ['block_4_depthwise_BN[0][0]']
 LU)                                                                                              
                                                                                                  
 block_4_project (Conv2D)    (None, 16, 16, 32)           6144      ['block_4_depthwise_relu[0][0]
                                                                    ']                            
                                                                                                  
 block_4_project_BN (BatchN  (None, 16, 16, 32)           128       ['block_4_project[0][0]']     
 ormalization)                                                                                    
                                                                                                  
 block_4_add (Add)           (None, 16, 16, 32)           0         ['block_3_project_BN[0][0]',  
                                                                     'block_4_project_BN[0][0]']  
                                                                                                  
 block_5_expand (Conv2D)     (None, 16, 16, 192)          6144      ['block_4_add[0][0]']         
                                                                                                  
 block_5_expand_BN (BatchNo  (None, 16, 16, 192)          768       ['block_5_expand[0][0]']      
 rmalization)                                                                                     
                                                                                                  
 block_5_expand_relu (ReLU)  (None, 16, 16, 192)          0         ['block_5_expand_BN[0][0]']   
                                                                                                  
 block_5_depthwise (Depthwi  (None, 16, 16, 192)          1728      ['block_5_expand_relu[0][0]'] 
 seConv2D)                                                                                        
                                                                                                  
 block_5_depthwise_BN (Batc  (None, 16, 16, 192)          768       ['block_5_depthwise[0][0]']   
 hNormalization)                                                                                  
                                                                                                  
 block_5_depthwise_relu (Re  (None, 16, 16, 192)          0         ['block_5_depthwise_BN[0][0]']
 LU)                                                                                              
                                                                                                  
 block_5_project (Conv2D)    (None, 16, 16, 32)           6144      ['block_5_depthwise_relu[0][0]
                                                                    ']                            
                                                                                                  
 block_5_project_BN (BatchN  (None, 16, 16, 32)           128       ['block_5_project[0][0]']     
 ormalization)                                                                                    
                                                                                                  
 block_5_add (Add)           (None, 16, 16, 32)           0         ['block_4_add[0][0]',         
                                                                     'block_5_project_BN[0][0]']  
                                                                                                  
 block_6_expand (Conv2D)     (None, 16, 16, 192)          6144      ['block_5_add[0][0]']         
                                                                                                  
 block_6_expand_BN (BatchNo  (None, 16, 16, 192)          768       ['block_6_expand[0][0]']      
 rmalization)                                                                                     
                                                                                                  
 block_6_expand_relu (ReLU)  (None, 16, 16, 192)          0         ['block_6_expand_BN[0][0]']   
                                                                                                  
 block_6_pad (ZeroPadding2D  (None, 17, 17, 192)          0         ['block_6_expand_relu[0][0]'] 
 )                                                                                                
                                                                                                  
 block_6_depthwise (Depthwi  (None, 8, 8, 192)            1728      ['block_6_pad[0][0]']         
 seConv2D)                                                                                        
                                                                                                  
 block_6_depthwise_BN (Batc  (None, 8, 8, 192)            768       ['block_6_depthwise[0][0]']   
 hNormalization)                                                                                  
                                                                                                  
 block_6_depthwise_relu (Re  (None, 8, 8, 192)            0         ['block_6_depthwise_BN[0][0]']
 LU)                                                                                              
                                                                                                  
 block_6_project (Conv2D)    (None, 8, 8, 64)             12288     ['block_6_depthwise_relu[0][0]
                                                                    ']                            
                                                                                                  
 block_6_project_BN (BatchN  (None, 8, 8, 64)             256       ['block_6_project[0][0]']     
 ormalization)                                                                                    
                                                                                                  
 block_7_expand (Conv2D)     (None, 8, 8, 384)            24576     ['block_6_project_BN[0][0]']  
                                                                                                  
 block_7_expand_BN (BatchNo  (None, 8, 8, 384)            1536      ['block_7_expand[0][0]']      
 rmalization)                                                                                     
                                                                                                  
 block_7_expand_relu (ReLU)  (None, 8, 8, 384)            0         ['block_7_expand_BN[0][0]']   
                                                                                                  
 block_7_depthwise (Depthwi  (None, 8, 8, 384)            3456      ['block_7_expand_relu[0][0]'] 
 seConv2D)                                                                                        
                                                                                                  
 block_7_depthwise_BN (Batc  (None, 8, 8, 384)            1536      ['block_7_depthwise[0][0]']   
 hNormalization)                                                                                  
                                                                                                  
 block_7_depthwise_relu (Re  (None, 8, 8, 384)            0         ['block_7_depthwise_BN[0][0]']
 LU)                                                                                              
                                                                                                  
 block_7_project (Conv2D)    (None, 8, 8, 64)             24576     ['block_7_depthwise_relu[0][0]
                                                                    ']                            
                                                                                                  
 block_7_project_BN (BatchN  (None, 8, 8, 64)             256       ['block_7_project[0][0]']     
 ormalization)                                                                                    
                                                                                                  
 block_7_add (Add)           (None, 8, 8, 64)             0         ['block_6_project_BN[0][0]',  
                                                                     'block_7_project_BN[0][0]']  
                                                                                                  
 block_8_expand (Conv2D)     (None, 8, 8, 384)            24576     ['block_7_add[0][0]']         
                                                                                                  
 block_8_expand_BN (BatchNo  (None, 8, 8, 384)            1536      ['block_8_expand[0][0]']      
 rmalization)                                                                                     
                                                                                                  
 block_8_expand_relu (ReLU)  (None, 8, 8, 384)            0         ['block_8_expand_BN[0][0]']   
                                                                                                  
 block_8_depthwise (Depthwi  (None, 8, 8, 384)            3456      ['block_8_expand_relu[0][0]'] 
 seConv2D)                                                                                        
                                                                                                  
 block_8_depthwise_BN (Batc  (None, 8, 8, 384)            1536      ['block_8_depthwise[0][0]']   
 hNormalization)                                                                                  
                                                                                                  
 block_8_depthwise_relu (Re  (None, 8, 8, 384)            0         ['block_8_depthwise_BN[0][0]']
 LU)                                                                                              
                                                                                                  
 block_8_project (Conv2D)    (None, 8, 8, 64)             24576     ['block_8_depthwise_relu[0][0]
                                                                    ']                            
                                                                                                  
 block_8_project_BN (BatchN  (None, 8, 8, 64)             256       ['block_8_project[0][0]']     
 ormalization)                                                                                    
                                                                                                  
 block_8_add (Add)           (None, 8, 8, 64)             0         ['block_7_add[0][0]',         
                                                                     'block_8_project_BN[0][0]']  
                                                                                                  
 block_9_expand (Conv2D)     (None, 8, 8, 384)            24576     ['block_8_add[0][0]']         
                                                                                                  
 block_9_expand_BN (BatchNo  (None, 8, 8, 384)            1536      ['block_9_expand[0][0]']      
 rmalization)                                                                                     
                                                                                                  
 block_9_expand_relu (ReLU)  (None, 8, 8, 384)            0         ['block_9_expand_BN[0][0]']   
                                                                                                  
 block_9_depthwise (Depthwi  (None, 8, 8, 384)            3456      ['block_9_expand_relu[0][0]'] 
 seConv2D)                                                                                        
                                                                                                  
 block_9_depthwise_BN (Batc  (None, 8, 8, 384)            1536      ['block_9_depthwise[0][0]']   
 hNormalization)                                                                                  
                                                                                                  
 block_9_depthwise_relu (Re  (None, 8, 8, 384)            0         ['block_9_depthwise_BN[0][0]']
 LU)                                                                                              
                                                                                                  
 block_9_project (Conv2D)    (None, 8, 8, 64)             24576     ['block_9_depthwise_relu[0][0]
                                                                    ']                            
                                                                                                  
 block_9_project_BN (BatchN  (None, 8, 8, 64)             256       ['block_9_project[0][0]']     
 ormalization)                                                                                    
                                                                                                  
 block_9_add (Add)           (None, 8, 8, 64)             0         ['block_8_add[0][0]',         
                                                                     'block_9_project_BN[0][0]']  
                                                                                                  
 block_10_expand (Conv2D)    (None, 8, 8, 384)            24576     ['block_9_add[0][0]']         
                                                                                                  
 block_10_expand_BN (BatchN  (None, 8, 8, 384)            1536      ['block_10_expand[0][0]']     
 ormalization)                                                                                    
                                                                                                  
 block_10_expand_relu (ReLU  (None, 8, 8, 384)            0         ['block_10_expand_BN[0][0]']  
 )                                                                                                
                                                                                                  
 block_10_depthwise (Depthw  (None, 8, 8, 384)            3456      ['block_10_expand_relu[0][0]']
 iseConv2D)                                                                                       
                                                                                                  
 block_10_depthwise_BN (Bat  (None, 8, 8, 384)            1536      ['block_10_depthwise[0][0]']  
 chNormalization)                                                                                 
                                                                                                  
 block_10_depthwise_relu (R  (None, 8, 8, 384)            0         ['block_10_depthwise_BN[0][0]'
 eLU)                                                               ]                             
                                                                                                  
 block_10_project (Conv2D)   (None, 8, 8, 96)             36864     ['block_10_depthwise_relu[0][0
                                                                    ]']                           
                                                                                                  
 block_10_project_BN (Batch  (None, 8, 8, 96)             384       ['block_10_project[0][0]']    
 Normalization)                                                                                   
                                                                                                  
 block_11_expand (Conv2D)    (None, 8, 8, 576)            55296     ['block_10_project_BN[0][0]'] 
                                                                                                  
 block_11_expand_BN (BatchN  (None, 8, 8, 576)            2304      ['block_11_expand[0][0]']     
 ormalization)                                                                                    
                                                                                                  
 block_11_expand_relu (ReLU  (None, 8, 8, 576)            0         ['block_11_expand_BN[0][0]']  
 )                                                                                                
                                                                                                  
 block_11_depthwise (Depthw  (None, 8, 8, 576)            5184      ['block_11_expand_relu[0][0]']
 iseConv2D)                                                                                       
                                                                                                  
 block_11_depthwise_BN (Bat  (None, 8, 8, 576)            2304      ['block_11_depthwise[0][0]']  
 chNormalization)                                                                                 
                                                                                                  
 block_11_depthwise_relu (R  (None, 8, 8, 576)            0         ['block_11_depthwise_BN[0][0]'
 eLU)                                                               ]                             
                                                                                                  
 block_11_project (Conv2D)   (None, 8, 8, 96)             55296     ['block_11_depthwise_relu[0][0
                                                                    ]']                           
                                                                                                  
 block_11_project_BN (Batch  (None, 8, 8, 96)             384       ['block_11_project[0][0]']    
 Normalization)                                                                                   
                                                                                                  
 block_11_add (Add)          (None, 8, 8, 96)             0         ['block_10_project_BN[0][0]', 
                                                                     'block_11_project_BN[0][0]'] 
                                                                                                  
 block_12_expand (Conv2D)    (None, 8, 8, 576)            55296     ['block_11_add[0][0]']        
                                                                                                  
 block_12_expand_BN (BatchN  (None, 8, 8, 576)            2304      ['block_12_expand[0][0]']     
 ormalization)                                                                                    
                                                                                                  
 block_12_expand_relu (ReLU  (None, 8, 8, 576)            0         ['block_12_expand_BN[0][0]']  
 )                                                                                                
                                                                                                  
 block_12_depthwise (Depthw  (None, 8, 8, 576)            5184      ['block_12_expand_relu[0][0]']
 iseConv2D)                                                                                       
                                                                                                  
 block_12_depthwise_BN (Bat  (None, 8, 8, 576)            2304      ['block_12_depthwise[0][0]']  
 chNormalization)                                                                                 
                                                                                                  
 block_12_depthwise_relu (R  (None, 8, 8, 576)            0         ['block_12_depthwise_BN[0][0]'
 eLU)                                                               ]                             
                                                                                                  
 block_12_project (Conv2D)   (None, 8, 8, 96)             55296     ['block_12_depthwise_relu[0][0
                                                                    ]']                           
                                                                                                  
 block_12_project_BN (Batch  (None, 8, 8, 96)             384       ['block_12_project[0][0]']    
 Normalization)                                                                                   
                                                                                                  
 block_12_add (Add)          (None, 8, 8, 96)             0         ['block_11_add[0][0]',        
                                                                     'block_12_project_BN[0][0]'] 
                                                                                                  
 block_13_expand (Conv2D)    (None, 8, 8, 576)            55296     ['block_12_add[0][0]']        
                                                                                                  
 model (Functional)          (None, 4, 4, 320)            1841984   ['input_1[0][0]']             
                                                                                                  
 block_13_expand_BN (BatchN  (None, 8, 8, 576)            2304      ['block_13_expand[0][0]']     
 ormalization)                                                                                    
                                                                                                  
 up_1 (Conv2DTranspose)      (None, 8, 8, 512)            1475072   ['model[0][0]']               
                                                                                                  
 block_13_expand_relu (ReLU  (None, 8, 8, 576)            0         ['block_13_expand_BN[0][0]']  
 )                                                                                                
                                                                                                  
 concatenate (Concatenate)   (None, 8, 8, 1088)           0         ['up_1[0][0]',                
                                                                     'block_13_expand_relu[0][0]']
                                                                                                  
 up_2 (Conv2DTranspose)      (None, 16, 16, 256)          2507008   ['concatenate[0][0]']         
                                                                                                  
 concatenate_1 (Concatenate  (None, 16, 16, 448)          0         ['up_2[0][0]',                
 )                                                                   'block_6_expand_relu[0][0]'] 
                                                                                                  
 up_3 (Conv2DTranspose)      (None, 32, 32, 128)          516224    ['concatenate_1[0][0]']       
                                                                                                  
 concatenate_2 (Concatenate  (None, 32, 32, 272)          0         ['up_3[0][0]',                
 )                                                                   'block_3_expand_relu[0][0]'] 
                                                                                                  
 up_4 (Conv2DTranspose)      (None, 64, 64, 64)           156736    ['concatenate_2[0][0]']       
                                                                                                  
 concatenate_3 (Concatenate  (None, 64, 64, 160)          0         ['up_4[0][0]',                
 )                                                                   'block_1_expand_relu[0][0]'] 
                                                                                                  
 conv2d_transpose (Conv2DTr  (None, 128, 128, 2)          5122      ['concatenate_3[0][0]']       
 anspose)                                                                                         
                                                                                                  
==================================================================================================
Total params: 6502146 (24.80 MB)
Trainable params: 6471234 (24.69 MB)
…
